models/03_pt_FashionMnist_fcn_cpu.pth (torch, 65247 bytes, 4 tensors)

layer_stack.1.weight f4 [20, 784]
000000 40 de e1 3c 03 b1 f8 3c cc 21 c1 ba 76 0b 06 3d
       0.027571797 0.030357843 -0.0014734804 0.032725774
000010 39 84 a0 bb 47 5e 15 bb ea b5 b8 bd f0 97 db bd
       -0.0048985747 -0.002279179 -0.09019072 -0.10722339
000020 96 bf 2d be cb 5e 90 bd 3e 69 cc 3d af 7c 22 ba
       -0.16967615 -0.0704933 0.09981011 -0.0006198389
000030 f9 fc 93 3d 7a 0a 76 be b4 6a d4 be 9d 62 b8 bd
       0.07225985 -0.24027434 -0.41487658 -0.09003184
000040 fa a6 e1 3c 44 80 21 3e a3 28 6b bd a7 f1 a1 be
       0.027545441 0.15771586 -0.0574118 -0.3162968
000050 e6 4e a2 be f6 d7 19 be f0 cd d1 bd 33 aa 25 bc
       -0.3170082 -0.15023789 -0.102443576 -0.010111379
000060 b8 c2 ed bb 88 93 21 bc f1 55 3a bc ad cd 93 bc
       -0.0072558783 -0.009861834 -0.011373029 -0.01804241
000070 70 da 7f 3b ed e8 0e bd 54 e0 4b 3d 14 ea 61 bc
       0.003904011 -0.034890104 0.049774483 -0.013788719
000080 8e 28 2e 3d 58 80 1a bd 4e 74 96 bd 8a ad 3e bd
       0.042519145 -0.037720054 -0.07346402 -0.04655222
000090 58 41 6a 3d 9e 29 bf 3e a7 9c ff 3c df 40 da bd
       0.057191223 0.3733644 0.031202627 -0.106569044
0000a0 95 08 c0 3d 36 6d 31 3d df ff 8f 3d e7 0f 12 bd
       0.09376637 0.043317042 0.070312254 -0.035659697
0000b0 00 93 2a be 22 4f 14 be 35 7c 15 3e 3d c6 65 bc
       -0.16657639 -0.14483312 0.14598162 -0.0140243145
0000c0 59 73 59 be 97 3c 33 be 0d 4c e0 bd 00 1b bd bd
       -0.21235408 -0.17503582 -0.109520055 -0.092336655
0000d0 c6 94 92 bd 9e 7c 6e 3c fa b0 97 bc 6e 2e 90 3c
       -0.071572825 0.014556078 -0.018517006 0.017600264
0000e0 14 74 0c 3c 39 60 4c 3b 67 0b 19 3d cc 4a 82 b9
       0.008572597 0.0031185283 0.03736439 -0.0002485126
0000f0 b0 c3 17 3d 5d 25 00 3c 1f 81 1b 3e 91 ed 06 3e
       0.037051857 0.007821408 0.15185975 0.13176562
000100 ab 84 25 3e 75 c8 88 3e e2 26 27 3d 04 75 fe bc
       0.1616389 0.26715437 0.040808566 -0.031061657
000110 ba b1 b2 bd 0c 85 df 3c 6d 8e 7a 3d 70 35 10 be
       -0.08725305 0.027285121 0.061170984 -0.14082885
000120 1b 8d 99 bd c0 91 26 bd 03 80 a5 bc 11 12 42 bd
       -0.07497617 -0.04066634 -0.020202642 -0.04738051
000130 55 e3 59 3c 1a cb 73 3d 5f 6d 38 3d 74 9f 35 3d
       0.013298829 0.059519865 0.04502618 0.04434152
000140 08 64 ab bc 87 1b dd bd 74 9a e0 bc a6 9b ea bc
       -0.020921722 -0.10796266 -0.027417399 -0.028638672
000150 51 40 92 3c 70 41 43 bc c3 54 9d 3c 26 bf 1f bd
       0.017852934 -0.011917457 0.019205457 -0.039000653
000160 ad 08 37 3d a5 c2 a0 3d b4 d9 4e 3d df 42 d2 3d
       0.04468601 0.078496255 0.050500587 0.10266661
000170 30 ca db 3d e4 77 bd bb 14 f9 40 bd fb d5 9d 3c
       0.107319236 -0.0057821143 -0.04711254 0.019267073
000180 47 87 2a bd 6a 19 55 bb dd 6a 4b 3c cd 7b 7e bd
       -0.041632917 -0.0032516369 0.012415615 -0.062129784
000190 52 c5 25 3b d3 50 e0 3d 10 36 44 bd e4 74 2f be
       0.0025294614 0.10952916 -0.04790312 -0.17134434
0001a0 c7 55 8b bc 9e 3e 8b bd 48 fe a1 3b 56 ee 21 bd
       -0.017008675 -0.06799053 0.0049436428 -0.039533935
0001b0 8c b0 94 bd 40 94 13 be cf 77 08 bc 3e d1 6d bb
       -0.07260236 -0.14412022 -0.008329346 -0.0036288048
0001c0 5f d7 ff 3a 3a 67 3b bd d0 38 83 bc 48 86 ff bc
       0.0019519142 -0.04575274 -0.016018301 -0.03119196
0001d0 cd f3 be 3d ab f3 d4 bb f3 9d b9 3c 17 c6 3b 3e
       0.09323845 -0.006498774 0.022658324 0.18337284
0001e0 a7 cf bc 3d 91 b5 b2 bd ec 3a f2 3d 2f 15 90 3d
       0.09219294 -0.08726037 0.11827645 0.070352904
0001f0 90 79 f6 bd 54 a3 ee bd d4 fd 89 3c b5 a6 83 3c
       -0.12034905 -0.11652246 0.016844667 0.016070703
000200 5f ab 05 3d a3 b4 2c 3e 46 7a dd 3d a2 7c 2e bd
       0.032634135 0.16865782 0.108143374 -0.042599328
000210 b4 9c 4c 3b 22 41 32 3d a3 f9 8e bd 16 82 f0 bc
       0.0031221332 0.043519147 -0.06981208 -0.029358905
000220 05 1f af bd e3 f1 f6 bd 52 d0 1a bd cc 55 cd bc
       -0.085508384 -0.12057855 -0.037796326 -0.025065325
000230 2b 38 bc bb 40 71 41 bd 0b ae e6 3c e6 2d 47 3c
       -0.0057440004 -0.047227144 0.028159162 0.012156939
000240 14 cc bb 3c 0a 21 7a 3d 3f 8c 88 3d b0 fc 00 3e
       0.02292446 0.061066665 0.06667375 0.12596393
000250 ba 36 14 3e bd ef d8 bc 07 b6 36 3e be e8 e5 3c
       0.14474002 -0.026481504 0.17842875 0.028065082
000260 0d e5 cd bd 0b 4b 4f be b1 55 01 be c9 6d 43 3d
       -0.100534536 -0.2024347 -0.12630345 0.04771212
000270 d2 2a 83 bc a7 07 94 3d f0 bb a7 3d ac 35 00 3c
       -0.01601163 0.07228022 0.08190143 0.007825296
000280 d4 e1 c8 3d 89 ed 6f 3d 05 30 2a 3c 9e e2 af bd
       0.09808698 0.05857614 0.010387425 -0.08588146
000290 40 d9 a4 bc 88 00 2f bd 95 e7 df bd 93 13 96 bc
       -0.020123124 -0.042725116 -0.10932843 -0.01831988
0002a0 2d 5f 93 bc e9 11 4e bd 3e 15 29 bd a7 e7 e9 3c
       -0.01798972 -0.05031005 -0.041280024 0.028552843
0002b0 0f d7 20 3d d3 12 25 3b 7e 25 28 3d c6 ed 21 3d
       0.039267596 0.0025188222 0.04105138 0.0395334
0002c0 f5 df 49 bd 51 01 a8 3d f9 cf bf 3d e4 2b 06 be
       -0.049285848 0.08203376 0.093658395 -0.1310268
0002d0 97 8a de 3c 4c 30 49 be 27 8d 14 be 67 c8 cc bd
       0.027165694 -0.1964733 -0.1450697 -0.09999161
0002e0 c0 87 24 bc b6 63 8e 3d ca e9 4c 3e c8 73 2a 3d
       -0.010042131 0.06952612 0.20011058 0.041614324
0002f0 65 6c b9 3d 87 33 3f 3d d8 9c 9b bd 67 9f 90 bd
       0.09053878 0.04668 -0.07598275 -0.070616536
000300 29 10 01 3d 52 85 c3 bd 36 fd 28 be c1 c7 bf bd
       0.031509552 -0.09546913 -0.16502842 -0.09364272
000310 47 46 1e bd fd d8 35 bd 15 ef de bc a4 7e 3e 3d
       -0.03864124 -0.04439639 -0.027213613 0.046507493
000320 22 7c 9d bc 71 b9 5b bc 6f 53 61 3d 84 2a cf 3c
       -0.01922423 -0.013410912 0.05501121 0.025288828
000330 cc e9 41 bd a5 c0 0b 3d 47 42 ef bc c4 06 cd bd
       -0.047342107 0.034119267 -0.029206408 -0.10011056
000340 5d d8 2c ba 8e fe b9 bd 30 8e 00 be e0 90 22 3b
       -0.000659352 -0.090817556 -0.1255424 0.002480559
000350 de 5b 43 bc df b2 35 bd b1 23 e1 3d 1c d2 de 3d
       -0.011923758 -0.044360038 0.10993136 0.10879919
000360 d8 7d 85 bc 60 9c 83 bc a1 f5 21 bd 6b af 07 be
       -0.016295359 -0.016065776 -0.03954089 -0.1325051
000370 af 7f b0 bd 95 d4 47 be 59 c8 26 be 43 52 cc bd
       -0.08618104 -0.19514687 -0.16287364 -0.09976628
000380 c3 58 a2 bd e8 af aa bc 53 3b c0 3b 62 40 69 3b
       -0.07927086 -0.020835832 0.005866447 0.0035591354
000390 7c 01 41 bd 9c 40 7f bd d8 e9 2b bd 94 2f b5 bc
       -0.047120556 -0.062317476 -0.041971058 -0.022117414
0003a0 99 dc 83 bd de 28 10 3c 48 ae de bd fd 9b 8c bd
       -0.0643856 0.008798806 -0.10873085 -0.0686569
0003b0 c3 a2 0d bd 01 5e 21 be d9 15 f4 bd 1a 60 29 bd
       -0.03457905 -0.15758516 -0.119182296 -0.041351415
0003c0 e6 a3 3e 3d 2e d9 9d bd a8 64 c2 3c 31 22 49 bd
       0.046543024 -0.07707439 0.023729637 -0.049104873
0003d0 ef f5 2f 3d f6 bb 07 3d 22 ea b6 bd f2 8c 1e be
       0.04295915 0.033138238 -0.08931376 -0.15483454
0003e0 e9 e5 fc bd 62 25 c0 bd 9f 1f ac bd 5c 82 5b bd
       -0.123485394 -0.0938213 -0.08404469 -0.053591117
0003f0 59 22 90 bd 34 c8 4b bd 44 1d 8b bc 1a 9e 6f bd
       -0.07037801 -0.049751475 -0.016981728 -0.058500387

layer_stack.1.bias f4 [20]
000000 4e 30 47 3f 25 ef eb bd 11 67 de 3d 85 43 87 bf
       0.7780808 -0.115202226 0.10859502 -1.056748
000010 09 51 a5 3e 82 df 9c be 26 24 9b 3e 24 8d 94 ba
       0.32288387 -0.30639273 0.30301017 -0.0011333567
000020 83 3c e2 be 25 75 ad be 60 8f b6 3f 07 b0 ae be
       -0.44186792 -0.33878437 1.4262505 -0.34118673
000030 82 5f 8c bf 81 9c 4a 3e bd 3a 09 3d 74 ef 63 3f
       -1.0966647 0.19786264 0.033503283 0.8903725
000040 22 d9 0c bf 73 ef c0 bd 1c 8a 22 bf de 55 96 bd
       -0.5501882 -0.09420671 -0.6349199 -0.073405966

layer_stack.2.weight f4 [10, 20]
000000 d1 ee 35 3e e5 c7 8b bd b9 13 57 3e 22 8c 1a bf
       0.17766882 -0.06825236 0.21003617 -0.60370076
000010 9e ac c0 be 8e 1c fd be bd fb ff bd 8c 56 0e bf
       -0.37631696 -0.49435848 -0.12499187 -0.5560081
000020 e9 78 b5 3e bd 38 89 3e 2b 7e b1 3c 6a 33 f3 3e
       0.3544381 0.268011 0.021666607 0.47500163
000030 3f 8a e6 be a3 4b 9c be 2c 86 cb bd 50 a6 3b be
       -0.45027348 -0.30526456 -0.09937701 -0.18325162
000040 9a aa a0 3e 79 91 1f 3e eb 38 92 3e 01 ad cb 3e
       0.3138016 0.15582837 0.2855905 0.3978043
000050 c0 62 f3 be 24 1b 7b be a9 4a 89 3e d8 e3 b7 bb
       -0.47536278 -0.24522072 0.26814774 -0.005611878
000060 80 0f 6c be 4f 91 76 be 0f 90 36 3d d2 a8 2a 3f
       -0.23052788 -0.24078868 0.04457098 0.6666385
000070 b7 d3 16 3f b7 94 fd 3e 6d 23 bb be b7 61 32 3f
       0.589168 0.49527523 -0.36550465 0.6968035
000080 c3 eb 21 be fe 7a 31 bf 66 8d 88 3d c6 04 2e bf
       -0.15812592 -0.69328296 0.066675946 -0.67976034
000090 8d b2 b1 be 17 80 05 bf 30 7c a8 be 2f 4c b1 3d
       -0.34706536 -0.52148575 -0.32907248 0.08657109
0000a0 27 22 c3 3e 52 c9 89 3e 6f d6 ed 3b 4f ed 7e be
       0.38111994 0.26911408 0.0072582285 -0.24895214
0000b0 83 d2 48 be 87 6f ea be cb a7 a4 be 6b af bc be
       -0.19611554 -0.45788214 -0.32159266 -0.36852583
0000c0 c3 34 d6 bd 70 8c 6c be 98 5f 9c be 59 61 6a 3f
       -0.10459282 -0.23100448 -0.30541682 0.9155479
0000d0 18 e9 94 be f9 31 a1 be 9c 37 b3 be bf f6 7a be
       -0.29084086 -0.3148344 -0.35003364 -0.24508189
0000e0 ed a1 77 3e 27 e8 aa bd bc 1b 84 3e 71 9e a8 3e
       0.24182864 -0.08345061 0.2580241 0.3293338
0000f0 90 c3 d3 3e a5 48 a6 bd 5e 8c 0a be f9 12 14 bf
       0.4136014 -0.081193246 -0.13530108 -0.5784145
000100 16 32 d8 bd 0f 0e ea be 5d e3 ce be de 89 a6 be
       -0.10556428 -0.4571385 -0.4040784 -0.3252706
000110 b0 b2 a7 3e 3c 56 89 3e fe 4c 7f bd 7b 1f 02 3f
       0.32753515 0.26823604 -0.062329285 0.50829285
000120 ba 1b 8b 3d a1 84 d8 be 3b 4c 80 3e 2d 76 2e 3e
       0.06792398 -0.42288688 0.2505816 0.17037268
000130 65 b1 80 be 7a 05 e1 bd 2b d2 9d 3e 6d 5e 3d 3d
       -0.2513534 -0.10987373 0.30824408 0.04623263
000140 d2 4c 8f 3e 55 c4 8a 3d 07 a2 ce 3e f7 2a 72 be
       0.27988297 0.067757286 0.40357992 -0.23649202
000150 02 80 ad be e6 40 cb be c7 80 3e bf 9b ca f5 be
       -0.33886725 -0.3969795 -0.7441525 -0.48006138
000160 9b 25 57 bd e3 a0 ee 3d 7b b7 b9 be 84 6d 4a 3f
       -0.052526098 0.116517805 -0.36272797 0.7907336
000170 76 13 37 3e ff 6b 87 be af 46 91 bd 2c e3 b7 be
       0.17878518 -0.26449582 -0.0709356 -0.35915506
000180 3f 70 8c 3e 3c 6c 43 be 12 21 d0 3e 5c 5c b5 3d
       0.27429387 -0.19084257 0.4065023 0.08855507
000190 6c 36 1b be 89 ea f6 be d1 83 d8 3d 90 6b 8a 3e
       -0.15157479 -0.4822581 0.10572017 0.2703519
0001a0 cb 2e 34 3f e8 29 de 3e 93 fd 1c 3f 11 3d 0f 3f
       0.703839 0.43391347 0.61324424 0.55952555
0001b0 7a 1c 55 bf ad 3c 2b bf 35 af 44 3f 57 d5 a3 bf
       -0.83246577 -0.6688946 0.76829845 -1.2799481
0001c0 17 ad 72 3d fd 33 84 3f 8a 53 18 3e 7e 96 71 3e
       0.059247103 1.0328366 0.14875618 0.23592564
0001d0 40 b0 05 bf 2a ce 5f be 4f 87 95 bf 5c e4 17 bf
       -0.5222206 -0.21855989 -1.1681918 -0.59332824
0001e0 27 8b 8d 3e b7 f0 f1 3d 25 bd 99 3e 2d 18 b1 be
       0.27645227 0.11813491 0.30027118 -0.34588757
0001f0 22 b7 31 be be f6 79 be ff f4 9f be 5c d7 53 bf
       -0.17355016 -0.24410531 -0.31241605 -0.8275049
000200 9b 7c f7 3c d2 f6 92 3e 45 46 91 bd 36 87 2e 3f
       0.030210784 0.28703934 -0.07093481 0.68175066
000210 c0 c3 72 be 08 08 86 be 93 c7 89 be a4 b2 89 be
       -0.23707485 -0.26178002 -0.26910076 -0.26894104
000220 2b 5f 9b 3c 09 74 71 3e 3e 57 bc 3e 27 65 9b 3e
       0.018966278 0.2357942 0.3678531 0.3035061
000230 9e 68 da bd 4c b1 4f 3c 74 9b d6 be 1b 97 52 3f
       -0.106644854 0.012676548 -0.41915476 0.8226182
000240 01 70 f4 3e 7e 6b 4d 3f e0 43 cf 3e 15 21 59 3f
       0.47741702 0.80242145 0.40481472 0.84816104
000250 4c ed 55 3e a9 e6 f1 bd 58 a5 e4 3e 17 f1 d8 bf
       0.20891303 -0.11811573 0.44657397 -1.6948575
000260 ef 14 ae 3e b5 02 b1 3d d1 3f b1 be 6f 2d 12 3f
       0.34000346 0.086430945 -0.34619 0.57100576
000270 2e 1a 84 3e 3f 52 f0 3d b1 c8 35 bf 18 fb 0c bf
       0.25801224 0.11734437 -0.71009356 -0.5507064
000280 a4 af 2e bc 62 3e 26 3e 08 84 2e 3e 72 0e 9e 3e
       -0.010661993 0.16234735 0.17042553 0.30870396
000290 f0 3d 3f 3e be 80 c0 be 5d 6c 0d be ac 41 0a be
       0.18675971 -0.37598222 -0.13810869 -0.13501614
0002a0 1f 5f 69 be 71 82 05 3f 2e cf 9d bc 0d 47 1d 3f
       -0.22790192 0.5215216 -0.01926383 0.6143654
0002b0 92 02 6f be e6 d5 ca 3e b9 ae ca 3e 43 81 c5 3e
       -0.23340824 0.39616317 0.39586428 0.3857518
0002c0 69 fd ea 3e ff 17 99 3e f0 1c e6 3e 7b 26 24 3d
       0.45896462 0.2990112 0.44943953 0.04007576
0002d0 66 65 16 bf 6e 77 df be 23 93 52 bf 07 8c 3b 3f
       -0.5874847 -0.43645805 -0.8225576 0.7326054
0002e0 1f 6f f0 3e 96 cd 34 3f 08 9d 6b 3f 0b 4b 99 3e
       0.4695978 0.706262 0.92036486 0.29940066
0002f0 17 e7 b2 3d 01 be 02 bf 05 bc 63 be 65 2a d6 bf
       0.08735483 -0.5107117 -0.22239693 -1.6731688
000300 f0 71 46 3f cb 0e 44 3f bb a2 bb 3d 7b 0d 58 bb
       0.77517605 0.7658507 0.09161898 -0.003296702
000310 fd b2 ea bd 68 99 b4 3e 36 d6 0c bf 34 00 a8 be
       -0.114599206 0.3527329 -0.5501436 -0.32812655

layer_stack.2.bias f4 [10]
000000 2a a3 83 3e d9 50 f4 be 1c 43 c6 3e 6d 30 86 3e
       0.25710422 -0.47717932 0.38723075 0.2620882
000010 ad 5d 4f bf 66 5d 2c 3f 71 fd 72 3f c5 94 b1 3d
       -0.8100231 0.67330015 0.9491797 0.08670954
000020 48 54 39 3c b5 91 9a bf
       0.011311598 -1.2075716
