models/03_pt_FashionMnist_cnn_gpu.pth (torch, 34375 bytes, 10 tensors)

block_1.0.weight f4 [10, 1, 3, 3]
0.3926202 0.15540896 -0.23601161 0.26438966 0.26096627 0.1273898 -0.48456496 0.11175398
0.2509848 -0.49470428 0.3034769 -0.09462314 0.058860093 0.5386432 0.20348224 -0.10202542
0.2214683 -0.06416606 -0.5809804 -0.3573595 -0.4591401 -0.6631804 -0.6259571 -0.30824643
-0.6733249 -0.68821937 -0.6004262 -0.71028477 -0.7216118 -0.7611581 0.1202011 -0.5899789
0.0515827 0.17594092 -0.1199724 0.44758174 0.049114145 0.423977 0.039796636 -0.21416041
0.17290705 -0.17211889 0.108772874 0.6596802 0.08075878 -0.093432814 0.28087804 0.138254
0.21726969 -0.18582311 -0.31584543 -0.13452497 -0.2606397 0.2685122 0.08081023 -0.30002576
0.05554864 -0.57889754 -0.32000998 -0.69744486 -0.3933066 -0.7702156 -0.2643331 -0.24425977
-0.053153753 -0.21498872 0.21649691 -0.22618973 -0.2881118 -0.3024907 0.4454316 0.17869964
0.4253495 -0.5060605 -0.7745892 -0.3058106 -0.53902185 -0.23919988 0.32070094 0.4244303
-0.060239978 -0.22762951 0.17535786 -0.13507064 0.19957356 -0.08057093 0.18824226 -0.2596548
-0.1688454 0.09921705
00000000: 8405 c93e 8723 1f3e 07ad 71be 155e 873e
00000010: 5f9d 853e 7972 023e e618 f8be 45df e43d
00000020: 1481 803e e149 fdbe 5361 9b3e c7c9 c1bd
00000030: 4817 713d 85e4 093f a65d 503e b4f2 d0bd
00000040: 96c8 623e 7f69 83bd 22bb 14bf d3f7 b6be
00000050: 6914 ebbe 31c6 29bf b93e 20bf 7ad2 9dbe
00000060: 055f 2cbf 252f 30bf 88b5 19bf 39d5 35bf
00000070: 8dbb 38bf 42db 42bf ff2b f63d db08 17bf
00000080: 6248 533d db29 343e 17b4 f5bd 6f29 e53e
00000090: ea2b 493d 8313 d93e cc01 233d de4c 5bbe
000000a0: 8c0e 313e ef3f 30be 50c4 de3d cde0 283f
000000b0: dc64 a53d b459 bfbd 3fcf 8f3e 7592 0d3e
000000c0: f27b 5e3e 6a48 3ebe 7eb6 a1be eac0 09be
000000d0: 9172 85be 6e7a 893e d57f a53d fa9c 99be
000000e0: f986 633d a132 14bf 59d8 a3be bf8b 32bf
000000f0: 7c5f c9be d92c 45bf ab56 87be 3c1f 7abe
00000100: c0b7 59bd 0126 5cbe 5eb1 5d3e 489e 67be
00000110: 6483 93be 10e0 9abe 9c0f e43e 0afd 363e
00000120: 69c7 d93e 2e8d 01bf 7a4b 46bf 3593 9cbe
00000130: 56fd 09bf d0f0 74be ea32 a43e ee4e d93e
00000140: 32be 76bd b617 69be 0391 333e f54f 0abe
00000150: 035d 4c3e 5f02 a5bd 94c2 403e 79f1 84be
00000160: cfe5 2cbe 4f32 cb3d

block_1.0.bias f4 [10]
0.15622717 0.1487655 0.20184846 0.1868316 -0.45291626 -0.09334627 0.22294539 -0.05328246
-0.07301592 -0.32527506
00000000: 04fa 1f3e fc55 183e 5db1 4e3e c850 3f3e
00000010: a4e4 e7be 542c bfbd cc4b 643e b53e 5abd
00000020: 5f89 95bd 748a a6be

block_1.2.weight f4 [10, 10, 3, 3]
0.38303143 0.119052194 0.06038777 -0.122313105 -0.34010255 -0.41976246 0.01099174 -0.24828123
-0.14990193 -0.110419974 -0.0020952576 -0.12874211 -0.32247418 -0.28035635 -0.2579226 -0.0008520454
-0.028027713 -0.11416738 -0.1696505 -0.08961015 0.103708364 0.121636584 0.41991577 0.3017118
-0.106601335 0.037591323 0.023571838 -0.19222125 -0.09228328 -0.14467819 0.01563174 0.0142236585
-0.15619455 0.18216302 0.103938185 0.070329756 -0.14282316 -0.13513988 -0.020812383 -0.01824979
0.028829418 -0.10713155 0.038898755 -0.13620694 -0.061324894 0.032944877 0.0708227 0.0829764
0.10383647 -0.080456406 0.023435572 -0.04474548 -0.012660745 -0.07648428 0.010848887 -0.027849665
0.11622747 0.24386075 0.36281183 0.22941265 0.073533304 0.05700925 0.055595174 -0.08363471
0.044840835 -0.014880691 -0.06021359 0.0836667 0.003094329 -0.083991475 -0.09858137 0.00748743
0.04227637 -0.022511713 -0.06682867 -0.065397546 -0.10727357 0.052598726 0.2530679 -0.08276242
-0.058897175 0.05449798 0.01909172 -0.03745183 0.055008315 0.05539305 0.03941347 -0.018520761
-0.02792293 0.0112799825 0.02742491 -0.06444506 -0.018067582 0.24529287 -0.03495059 -0.10493691
0.06860867 -0.051943358 -0.08365309 0.117961735 -0.118119195 -0.12103137 0.052855253 -0.042705346
-0.10047575 -0.14207245 -0.14229335 -0.19283037 -0.035565767 0.044051126 0.096358865 0.04714748
-0.08070988 -0.0031234648 -0.018039403 0.12672669 0.079704605 0.022487376 0.11179607 -0.011245488
-0.096972436 0.084029734 -0.04614341 -0.02234837 -0.09242105 0.0704439 0.09382715 0.010767281
-0.09693707 -0.07322408 -0.102420814 0.06578191 0.046183858 0.07266013 0.03652208 0.027511222
-0.0015066694 -0.080781676 -0.0918347 -0.099108376 0.04486465 -0.053914204 -0.022418065 -0.060651958
-0.020124754 -0.066155 -0.043737963 0.03511512 -0.021750387 0.114922136 -0.02552192 -0.0625907
0.014683507 -0.03717672 -0.03851691 -0.10301184 0.019846287 -0.108329624 0.042503033 0.046669357
0.078514084 -0.09577602 0.1553478 -0.005492795 0.04761079 0.18602543 -0.0034700283 -0.021219708
0.034963936 -0.029573016 0.08133652 -0.10464445 0.06543784 0.078867264 0.0996755 -0.024865927
-0.086614825 0.023690786 0.058230944 -0.10491509 -0.023531662 -0.06267168 -0.008526317 -0.05158229
-0.043432962 -0.033401225 -0.09554347 0.08604099 0.085511 -0.016292442 -0.011542542 -0.04267198
-0.0922774 -0.1018842 0.03916875 -0.05235906 -0.06553984 -0.008349248 -0.035387423 -0.033987794
0.0037454423 -0.022637814 -0.036407676 -0.049603757 -0.08588022 0.08791562 -0.04219467 0.028374676
-0.03614295 0.009358737 0.100270584 0.050150644 -0.091086596 0.042919397 0.10418226 0.030860595
0.07075878 0.103916325 -0.016155014 0.023312379 -0.07365844 -0.022045486 0.08056608 0.0559866
-0.065370135 -0.08453923 -0.0720387 -0.104052514 -0.08133703 -0.026155863 0.07131673 0.017580824
-0.08006835 -0.084562406 0.05181816 -0.07833306 -0.012501162 0.050365742 -0.049365688 -0.009600222
-0.010259948 -0.02525433 -0.053544626 -0.09392604 -0.08520745 -0.056444105 0.10273789 -0.05097282
-0.0716431 0.028573263 0.032759774 0.059259605 0.08155315 0.058849577 -0.10455878 0.014506901
00000000: b21c c43e a3d1 f33d 2b59 773d 4b7f fabd
00000010: ec21 aebe 1beb d6be b316 343c 6f3d 7ebe
00000020: e47f 19be de23 e2bd 9750 09bb f9d4 03be
00000030: 561b a5be de8a 8fbe 6e0e 84be cd5b 5fba
00000040: 609a e5bc 96d0 e9bd dcb8 2dbe 8785 b7bd
00000050: 0d65 d43d 9a1c f93d 33ff d63e f879 9a3e
00000060: cd51 dabd 5cf9 193d ba19 c13c a6d5 44be
00000070: 04ff bcbd 8526 14be 230e 803c 590a 693c
00000080: 77f1 1fbe f188 3a3e 8bdd d43d 0c09 903d
00000090: 3c40 12be 1c62 0abe bb7e aabc 9580 95bc
000000a0: ac2b ec3c c967 dbbd 4d54 1f3d d579 0bbe
000000b0: d02f 7bbd 35f1 063d 7e0b 913d 88ef a93d
000000c0: 37a8 d43d 54c6 a4bd f5fb bf3c 0947 37bd
000000d0: 036f 4fbc caa3 9cbd 88bf 313c fb24 e4bc
000000e0: ab08 ee3d a2b6 793e 79c2 b93e 26eb 6a3e
000000f0: a198 963d 8882 693d c4b7 633d ad48 abbd
00000100: 06ab 373d 24ce 73bc 86a2 76bd 7259 ab3d
00000110: 3aca 4a3b b903 acbd 08e5 c9bd 1d59 f53b
00000120: fd29 2d3d 7c6a b8bc 78dd 88bd 26ef 85bd
00000130: 3fb2 dbbd c371 573d 1e92 813e 587f a9bd
00000140: 2a3e 71bd 4639 5f3d 3d66 9c3c 1767 19bd
00000150: 6650 613d d3e3 623d 0570 213d dab8 97bc
00000160: a1be e4bc adcf 383c 34aa e03c c6fb 83bd
00000170: 7702 94bc 0e2e 7b3e 5a28 0fbd 2ae9 d6bd
00000180: b482 8c3d 8fc2 54bd 5052 abbd ec95 f13d
00000190: 7ae8 f1bd 4bdf f7bd c07e 583d cdeb 2ebd
000001a0: 3bc6 cdbd 717b 11be 59b5 11be 5375 45be
000001b0: 69ad 11bd f46e 343d cc57 c53d b71d 413d
000001c0: 394b a5bd 0bb3 4cbb 5fc7 93bc a4c4 013e
000001d0: 2b3c a33d 7237 b83c 57f5 e43d ff3e 38bc
000001e0: 7c99 c6bd c817 ac3d df00 3dbd ee13 b7bc
000001f0: 3f47 bdbd e444 903d 7328 c03d 4069 303c
00000200: f186 c6bd 82f6 95bd 01c2 d1bd abb8 863d
00000210: 492b 3d3d d6ce 943d 2d98 153d 375f e13c
00000220: 707b c5ba dd70 a5bd d513 bcbd 55f9 cabd
00000230: ffc3 373d 24d5 5cbd 17a6 b7bc 306e 78bd
00000240: abdc a4bc 467c 87bd 9426 33bd dfd4 0f3d
00000250: de2d b2bc 4c5c eb3d 5813 d1bc 8e2f 80bd
00000260: 1893 703c 9e46 18bd e8c3 1dbd dff7 d2bd
00000270: ae94 a23c ecdb ddbd a917 2e3d 5e28 3f3d
00000280: fecb a03d 3826 c4bd 7e13 1f3e e7fc b3bb
00000290: 8803 433d 737d 3e3e 6a69 63bb f4d4 adbc
000002a0: 5836 0f3d 1c43 f2bc c393 a63d d44f d6bd
000002b0: 4604 863d 2985 a13d ab22 cc3d a1b3 cbbc
000002c0: 1d63 b1bd 2e13 c23c 9283 6e3d b9dd d6bd
000002d0: 79c5 c0bc 025a 80bd f7b1 0bbc f447 53bd
000002e0: c3e6 31bd b9cf 08bd 4bac c3bd 4236 b03d
000002f0: 6420 af3d ba77 85bc ee1c 3dbc d0c8 2ebd
00000300: effb bcbd aaa8 d0bd 696f 203d 7476 56bd
00000310: c039 86bd 49cb 08bc 67f2 10bd c936 0bbd
00000320: 1876 753b f072 b9bc 3720 15bd 4f2d 4bbd
00000330: f8e1 afbd 1b0d b43d 51d4 2cbd 0272 e83c
00000340: a10a 14bd 6355 193c aa5a cd3d c36a 4d3d
00000350: 9c8b babd 40cc 2f3d 825d d53d 5ccf fc3c
00000360: fbe9 903d 15d2 d43d 8557 84bc 9af9 be3c
00000370: 3cda 96bd bc98 b4bc d4ff a43d 3552 653d
00000380: c7e0 85bd e722 adbd 0789 93bd 7c19 d5bd
00000390: 0794 a6bd d244 d6bc 810e 923d a905 903c
000003a0: e0fa a3bd 0e2f adbd 473f 543d 156d a0bd
000003b0: acd1 4cbc 4f4c 4e3d ad33 4abd 404a 1dbc
000003c0: 5719 28bc 2be2 cebc 9c51 5bbd 4c5c c0bd
000003d0: 3e81 aebd ef31 67bd 3e68 d23d e0c8 50bd
000003e0: 9eb9 92bd 7a12 ea3c 1d2f 063d 33ba 723d
000003f0: 5705 a73d 410c 713d ea22 d6bd 5aae 6d3c

block_1.2.bias f4 [10]
0.3280905 -0.043253466 -0.05249237 0.5705716 -0.13648155 0.32731864 0.07881777 -0.21517742
-0.1792009 0.10592663
00000000: 7afb a73e 8c2a 31bd 3d02 57bd fb10 123f
00000010: d2c1 0bbe 4f96 a73e 366b a13d 7857 5cbe
00000020: 7180 37be 10f0 d83d

block_2.0.weight f4 [10, 10, 3, 3]
-0.00894459 0.26313227 0.09515754 -0.11360886 -0.044075966 0.24631253 -0.0005760661 -0.13523374
0.048453756 0.021540638 -0.12125608 -0.060082067 -0.09130556 -0.03483466 0.037189458 -0.07037012
0.058539163 -0.08139954 0.01603304 -0.06417078 0.05232768 -0.046561237 -0.026616199 -0.09242972
0.00016179305 0.10007908 0.0510675 -0.041505285 -0.13807437 -0.5246004 0.048544895 0.4227871
-0.19778967 0.14567198 0.4150307 -0.10785503 0.014437909 0.036896445 0.020751925 -0.0530444
0.10084829 -0.017661236 -0.06821164 -0.05163094 0.10102771 -0.20699234 -0.31203774 -0.71016324
-0.36010796 -0.089348234 -0.524964 -0.023626115 0.26157752 0.1520166 -0.152232 0.09977238
-0.23250474 -0.074649684 0.28732857 0.047018077 0.023699462 0.28508213 0.09371292 0.07288669
-0.04326314 0.043065492 0.05477148 0.1322138 -0.14331603 -0.073405616 0.048139546 -0.1657181
-0.07164337 -0.09783823 0.0032767754 0.064435065 0.09332871 0.05863561 -0.060179107 -0.10857504
0.035967395 0.20346336 -0.42169034 0.05676419 0.19311507 -0.18958738 -0.040200084 0.1242719
0.3993547 0.23491901 -0.13801473 0.3135878 -0.07696558 -0.24748851 -0.23849265 -0.30376637
-0.111277714 0.023785962 -0.10704729 0.038015578 -0.1592143 -0.23412244 0.043006595 0.19753571
-0.108051896 -0.06604787 -0.15077011 0.05960908 0.06352174 0.035068486 -0.056171555 -0.086194634
0.005266519 -0.061402556 0.08658794 -0.10129324 0.047288045 0.4561977 -0.06447491 0.011499446
-0.06712406 0.6156339 0.13223581 -0.39967892 -0.2895905 -0.12623796 -0.022007372 0.088167064
-0.103753746 -0.08635233 0.014082807 -0.04138827 -0.009204755 -0.11418118 -0.047163732 0.13361682
-0.66517377 -0.8367463 0.74587 0.6472148 -0.1078289 0.26145166 0.101994924 0.012482058
-0.13097508 0.20398085 0.15306509 -0.16916978 -0.061447736 0.110631175 -0.21247877 0.07173814
-0.01618073 0.14881054 -0.314385 0.18120623 -0.111068 0.03482818 -0.0070589334 -0.22143582
-0.28022292 -0.05771318 -0.059576716 -0.006523135 0.06726115 0.027569095 0.054382276 0.0130618485
0.021872709 -0.041066226 -0.052175347 -0.07532616 -0.3695407 0.32099637 0.15475076 -0.3411362
0.38045692 -0.16682605 -0.22443451 -0.3820956 -0.22874776 -0.08101522 -0.007615051 -0.32897934
-0.30937764 -0.1879131 -0.124531984 0.04695161 -0.023973597 -0.02551323 -0.071755596 -0.023656532
-0.03222837 0.14869519 -0.024258029 -0.07581015 0.09640107 0.0057748635 0.08063923 0.06601684
0.09726026 -0.077087045 0.067722134 0.08936326 -0.052153748 0.09686969 0.07891996 -0.057151534
0.13753466 -0.036732472 -0.08128631 0.31604788 -0.05702453 -0.18699785 0.33580056 -0.1648203
0.067210816 0.084739596 -0.0049714497 -0.0818276 0.042588513 -0.0101546645 0.0005548556 0.01247909
0.039778866 -0.23563746 0.11069191 -0.06808298 -0.0064572976 0.3806558 0.0054614088 -0.16093871
0.37649497 -0.038873542 0.11030506 -0.014289791 -0.093869805 0.024595179 0.105989166 -0.045374252
-4.4430595e-05 -0.02642857 -0.0047875345 -0.048951875 -0.13844617 0.07526678 0.043044608 0.0931355
0.024792178 -0.08141661 0.050181642 0.12255418 -0.114683315 -0.09857127 0.057571284 0.05398301
00000000: 548c 12bc 46b9 863e f5e1 c23d c3ab e8bd
00000010: 0089 34bd 5a39 7c3e 2403 17ba b77a 0abe
00000020: 7277 463d fe75 b03c 1c55 f8bd 9d18 76bd
00000030: 69fe babd caae 0ebd f953 183d 361e 90bd
00000040: c3c6 6f3d cdb4 a6bd b957 833c f86b 83bd
00000050: 8d55 563d ffb6 3ebd 370a dabc cb4b bdbd
00000060: fea6 2939 43f6 cc3d 282c 513d 7201 2abd
00000070: 5e63 0dbe 364c 06bf 03d7 463d 8d77 d83e
00000080: 6089 4abe 092b 153e e77e d43e 19e3 dcbd
00000090: fb8c 6c3c ba20 173d f1ff a93c 1645 59bd
000000a0: 8c89 ce3d 4cae 90bc 8bb2 8bbd f77a 53bd
000000b0: 9ee7 ce3d cdf5 53be 69c3 9fbe 42cd 35bf
000000c0: 1260 b8be 35fc b6bd 0a64 06bf 8e8b c1bc
000000d0: 7ded 853e 3daa 1b3e b5e2 1bbe 7655 cc3d
000000e0: b915 6ebe efe1 98bd bb1c 933e 0796 403d
000000f0: 6025 c23c 49f6 913e 8fec bf3d 9e45 953d
00000100: b134 31bd 7165 303d 0f58 603d 0e63 073e
00000110: 70c1 12be af55 96bd f92d 453d 01b2 29be
00000120: c2b9 92bd 695f c8bd 2bbf 563b 88f6 833d
00000130: 1f23 bf3d e52b 703d 5e7e 76bd 975c debd
00000140: 8c52 133d b358 503e cce7 d7be 9181 683d
00000150: f5bf 453e 3223 42be d8a8 24bd 4482 fe3d
00000160: 3878 cc3e 9c8e 703e bc53 0dbe 958e a03e
00000170: 21a0 9dbd a16d 7dbe 6b37 74be 4487 9bbe
00000180: 92e5 e3bd c7da c23c 9c3b dbbd 39b6 1b3d
00000190: 1309 23be cbbd 6fbe af27 303d cd46 4a3e
000001a0: 504a ddbd 1b44 87bd 7b63 1abe a728 743d
000001b0: b017 823d f9a3 0f3d 2514 66bd d086 b0bd
000001c0: c392 ac3b 3f81 7bbd 0555 b13d d572 cfbd
000001d0: 1cb1 413d bf92 e93e 6c0b 84bd 2c68 3c3c
000001e0: 5778 89bd 2f9a 1d3f d368 073e b7a2 ccbe
000001f0: 3545 94be 8644 01be ce48 b4bc ef90 b43d
00000200: d87c d4bd 7ed9 b0bd 93bb 663c bf86 29bd
00000210: 8acf 16bc d3d7 e9bd c22e 41bd d9d2 083e
00000220: d448 2abf 0135 56bf 56f1 3e3f deaf 253f
00000230: 66d5 dcbd fedc 853e b7e2 d03d 8c81 4c3c
00000240: 551e 06be 5be0 503e 18bd 1c3e d83a 2dbe
00000250: 9fb0 7bbd 9992 e23d 0994 59be 72eb 923d
00000260: 738d 84bc ca61 183e 12f7 a0be 208e 393e
00000270: 9f77 e3bd fea7 0e3d a04e e7bb 12c0 62be
00000280: 6179 8fbe a864 6cbd b706 74bd 06c0 d5bb
00000290: 37c0 893d 95d8 e13c f3bf 5e3d 5d01 563c
000002a0: 652e b33c 0f35 28bd d1b5 55bd 9a44 9abd
000002b0: 7034 bdbe a359 a43e fc76 1e3e 67a9 aebe
000002c0: 40cb c23e 73d4 2abe 29d2 65be 09a2 c3be
000002d0: da3c 6abe 4feb a5bd ae87 f9bb fb6f a8be
000002e0: bf66 9ebe 4b6c 40be a00a ffbd 5550 403d
000002f0: 4764 c4bc 1f01 d1bc 99f4 92bd 58cb c1bc
00000300: e501 04bd 8d43 183e c6b8 c6bc 5a42 9bbd
00000310: ed6d c53d 113b bd3b 2e26 a53d d633 873d
00000320: 6330 c73d d0df 9dbd e7b1 8a3d 1604 b73d
00000330: 2b9f 55bd 9e63 c63d caa0 a13d ba17 6abd
00000340: e3d5 0c3e ca74 16bd 7079 a6bd 07d1 a13e
00000350: 8e92 69bd 5d7c 3fbe 0dee ab3e a7c6 28be
00000360: d3a5 893d f48b ad3d 8be7 a2bb 3b95 a7bd
00000370: 4b71 2e3d c05f 26bc bb73 113a 1975 4c3c
00000380: 2aef 223d f24a 71be 71b2 e23d 176f 8bbd
00000390: bd97 d3bb 51e5 c23e 9ef5 b23b 1ecd 24be
000003a0: f3c3 c03e dd39 1fbd 9fe7 e13d ba1f 6abc
000003b0: d03e c0bd d47b c93c d910 d93d 5ada 39bd
000003c0: fd5a 3ab8 ba80 d8bc c0e0 9cbb c381 48bd
000003d0: d5c4 0dbe 7825 9a3d 8b4f 303d d3bd be3d
000003e0: f718 cb3c c0bd a6bd 448b 4d3d b0fd fa3d
000003f0: 16df eabd bcdf c9bd decf 6b3d 4a1d 5d3d

block_2.0.bias f4 [10]
0.26082742 0.42423257 -0.21477406 -0.1359378 -0.20882319 -0.06623938 -0.034035 -0.0014352793
0.76975965 -0.09089539
00000000: 2c8b 853e 0335 d93e bbed 5bbe 4733 0bbe
00000010: bfd5 55be 83a8 87bd 4968 0bbd fb1f bcba
00000020: f80e 453f 5d27 babd

block_2.2.weight f4 [10, 10, 3, 3]
-0.1296863 -0.08736158 0.03848242 -0.11817825 0.08040285 0.071641 0.19569692 -0.05433658
-0.13680962 -0.20727384 -0.17917173 0.15740564 0.0235366 0.22102235 -0.28206152 0.21119225
0.62219685 -0.67937857 0.040247906 0.077506155 -0.08442068 -0.14615372 0.4112745 -0.22559527
-0.091365665 0.1201794 -0.0399015 -0.086361766 0.11608093 -0.054966237 -0.07761154 0.008972511
-0.025860388 -0.0034873034 -0.06458523 0.043225016 -0.15872014 -0.37165433 0.12141128 -0.05087855
-0.11910225 -0.1928541 -0.07999873 -0.10819305 -0.4991991 -0.1507418 -0.22742221 0.07323868
-0.028672565 -0.08741374 0.004584903 -0.008050891 -0.061771058 -0.12290179 -0.041749593 0.035438135
-0.08842234 -0.012522625 0.03856262 0.08467454 0.036629945 0.024031185 0.07609236 0.21043202
0.04048527 -0.11665534 -0.03066791 -0.0064254105 0.013849451 -0.091992095 -0.16686007 -0.088846005
-0.15166903 -0.24005243 0.043836363 -0.14490491 -0.23702793 0.2312441 -0.46319276 0.038697764
0.2678966 -0.06678977 0.0541139 -0.025606558 0.0020115955 -0.06414756 0.0073137144 0.035689846
0.010814457 -0.026053036 0.08369032 0.05873719 -0.080682755 -0.14641741 -0.0048609218 -0.46991754
-0.033759207 0.007450237 -0.35262778 -0.8226947 0.4148984 0.3069789 -0.69083637 -0.08099974
0.41799402 -0.16455773 -0.34554765 -0.37940478 -0.001264021 0.2366175 -0.12700005 0.14109787
0.02918077 -0.13647428 0.1210762 -0.37939534 -0.21532516 -0.09436929 0.03011136 0.072092675
-0.0037522432 -0.079038516 -0.079968624 -0.057107605 0.031871572 0.0015472206 0.03054058 0.11669289
-0.3205179 0.12400088 -0.18422532 -0.03712121 0.21163853 -0.27318743 0.056116883 -0.07610481
-0.09274567 0.035304148 -0.09638646 -0.23797183 -0.060422823 -0.10156909 -0.089499205 -0.097368725
0.07888971 -0.0011046539 0.07234406 -0.08005644 0.036270857 0.0066445074 -0.06312447 0.043850888
-0.11110238 0.13706541 0.19753744 0.03187872 -0.18562146 0.035204485 0.05712857 -0.38416323
-0.028502572 0.17656988 -0.1962864 -0.3030774 0.06942783 0.18825127 -0.24044897 -0.33142436
0.35065675 -0.41628876 -0.048353974 -0.08319018 0.002920166 0.08913746 -0.15280867 -0.11319741
0.027672447 -0.13097188 -0.1177952 -0.15882762 0.052175395 -0.03890722 -0.05647517 -0.08278013
-0.057583243 0.01299669 -0.04346114 0.050923876 -0.046889853 -0.11855007 0.015048055 -0.075955726
-0.10505045 0.006012187 0.025874317 -0.06805121 0.02573334 -0.009888773 -0.022725202 -0.0127355885
-0.04801185 -0.021029275 0.063514724 0.034021 -0.00584256 -0.044970125 0.020001799 -0.09561181
0.059353948 0.037221715 0.046656817 -0.029948717 -0.0996524 0.050821148 -0.06906469 0.0059891613
0.0594152 -0.09893857 0.007015956 -0.03772193 0.07520164 -0.06734376 0.06346345 0.06737449
0.057862476 0.10237474 0.05016719 -0.13367802 0.06628399 0.03720847 -0.035353933 -0.16583967
-0.042306967 -0.10998601 0.0531204 0.036343984 0.03830052 0.026189748 -0.10092458 -0.08367274
-0.09462758 -0.08699647 0.034378413 0.019871462 0.073437 -0.029414913 -0.11718939 -0.04957119
0.0425712 0.027257698 -0.0052727894 -0.0830788 -0.14130926 -0.1168201 0.0008710362 -0.07832984
00000000: 7ccc 04be a1ea b2bd be9f 1d3d 7007 f2bd
00000010: 40aa a43d 84b8 923d c664 483e 0990 5ebd
00000020: d217 0cbe 983f 54be cb78 37be f22e 213e
00000030: d4cf c03c af53 623e 5e6a 90be c842 583e
00000040: 4b48 1f3f c1eb 2dbf fdda 243d 8cbb 9e3d
00000050: c0e4 acbd 52a9 15be 9292 d23e 7202 67be
00000060: ec1d bbbd 9e20 f63d c16f 23bd 70de b0bd
00000070: d7bb ed3d 4724 61bd cdf2 9ebd 7001 133c
00000080: 2ad9 d3bc 3e8b 64bb 4345 84bd b70c 313d
00000090: 8887 22be 7a49 bebe 7aa6 f83d 0766 50bd
000000a0: e1eb f3bd 8c7b 45be 60d6 a3bd 5194 ddbd
000000b0: 0697 ffbe 0f5c 1abe 5ee1 68be 29fe 953d
000000c0: bae2 eabc fa05 b3bd f43c 963b e2e7 03bc
000000d0: a603 7dbd efb3 fbbd 9f01 2bbd 9427 113d
000000e0: c616 b5bd b22b 4dbc d6f3 1d3d d869 ad3d
000000f0: 4809 163d 0cdd c43c 50d6 9b3d 7e7b 573e
00000100: e2d3 253d ffe8 eebd 453b fbbc 408c d2bb
00000110: cfe8 623c 5a66 bcbd 5edd 2abe e5f4 b5bd
00000120: 204f 1bbe 4ed0 75be c28d 333d f461 14be
00000130: 73b7 72be 41cb 6c3e 9a27 edbe 8c81 1e3d
00000140: be29 893e 13c9 88bd 89a6 5d3d d8c4 d1bc
00000150: f9d4 033b cc5f 83bd e2a7 ef3b 842f 123d
00000160: 1f2f 313c 2d6d d5bc d565 ab3d 6896 703d
00000170: 003d a5bd 72ee 15be 5e48 9fbb 0899 f0be
00000180: 1847 0abd 1e21 f43b a18b b4be 1f9c 52bf
00000190: 906d d43e 572c 9d3e a7da 30bf 31e3 a5bd
000001a0: 5003 d63e d281 28be 9feb b0be 5841 c2be
000001b0: 82ad a5ba dc4b 723e 4d0c 02be f67b 103e
000001c0: 830c ef3c eabf 0bbe ccf6 f73d 1b40 c2be
000001d0: 337e 5cbe b044 c1bd 19ac f63c 53a5 933d
000001e0: 32e8 75bb f2de a1bd 97c6 a3bd aae9 69bd
000001f0: c48b 023d 1ccc ca3a 3d30 fa3c affc ee3d
00000200: ec1a a4be 2cf4 fd3d 90a5 3cbe 690c 18bd
00000210: c5b7 583e 39df 8bbe d1da 653d d7dc 9bbd
00000220: 71f1 bdbd 159b 103d 4466 c5bd e3ae 73be
00000230: ec7d 77bd 7403 d0bd 5c4b b7bd 4169 c7bd
00000240: ee90 a13d 09ca 90ba 1f29 943d a1f4 a3bd
00000250: c090 143d 2bba d93b 6747 81bd fd9c 333d
00000260: a589 e3bd e05a 0c3e 4147 4a3e 4393 023d
00000270: 8d13 3ebe 9432 103d a6ff 693d 0bb1 c4be
00000280: 3a7e e9bc bcce 343e 4dff 48be f62c 9bbe
00000290: 2e30 8e3d f1c4 403e 4138 76be 74b0 a9be
000002a0: 4889 b33e cd23 d5be d10e 46bd 9d5f aabd
000002b0: 4160 3f3b b38d b63d e079 1cbe 0bd4 e7bd
000002c0: 54b1 e23c 7e1d 06be 9c3e f1bd b5a3 22be
000002d0: deb5 553d 2d5d 1fbd 8252 67bd a188 a9bd
000002e0: 68dc 6bbd 12f0 543c 4f04 32bd 8e95 503d
000002f0: 930f 40bd 61ca f2bd 1e8c 763c ad8e 9bbd
00000300: b124 d7bd e101 c53b 60f6 d33c 6f5e 8bbd
00000310: bace d23c 8504 22bc 342a babc eea8 50bc
00000320: 13a8 44bd 9645 acbc 0214 823d 9b59 0b3d
00000330: f272 bfbb 9832 38bd d0da a33c 20d0 c3bd
00000340: 201d 733d cc75 183d 381b 3f3d 0357 f5bc
00000350: 8f16 ccbd d629 503d ca71 8dbd ba40 c43b
00000360: 5a5d 733d 4ea0 cabd 1be6 e53b 4f82 1abd
00000370: 5103 9a3d 86eb 89bd 20f9 813d a3fb 893d
00000380: 3401 6d3d d9a9 d13d 1d7c 4d3d e4e2 08be
00000390: e7bf 873d e967 183d 49cf 10bd e0d1 29be
000003a0: 124a 2dbd 5840 e1bd c794 593d 6edd 143d
000003b0: 02e1 1c3d e28b d63c 8cb1 cebd 9d5c abbd
000003c0: 1bcc c1bd 352b b2bd 61d0 0c3d 7ac9 a23c
000003d0: 2366 963d 8bf7 f0bc fe00 f0bd 290b 4bbd
000003e0: 235f 2e3d 894b df3c 5dc7 acbb 3825 aabd
000003f0: 60b3 10be 603f efbd 4056 643a 656b a0bd

block_2.2.bias f4 [10]
-0.011598987 0.2392158 -0.18527585 -0.10611473 0.09489616 0.124953926 0.14278045 -0.028325789
-0.17467402 -0.23834965
00000000: ad09 3ebc fdf4 743e f4b8 3dbe ae52 d9bd
00000010: eb58 c23d d8e7 ff3d 0a35 123e 7c0b e8bc
00000020: bfdd 32be ee11 74be

classifier.1.weight f4 [10, 490]
0.064183205 -0.055170447 0.25332725 0.09042986 -0.16483903 0.13144922 0.2023499 -0.027911223
-0.012338339 0.12959181 0.07445258 -0.036084548 0.12979612 0.026477082 0.052196767 0.24357894
-0.17180717 -0.030000394 -0.08583795 -0.076915 -0.2681739 -0.08735114 0.2613365 0.012370283
0.027010493 0.1650016 0.15393375 -0.35342962 -0.12319834 0.16910698 -0.005834169 -0.103236794
0.20768258 0.13677742 -0.32605174 -0.1702985 -0.003357003 -0.27388483 -0.2570839 -0.29092702
0.10464114 0.10049751 -0.030466657 -0.03394814 -0.19293392 -0.20614046 -0.11052853 0.11128333
0.091813125 0.14586402 -0.14882547 0.07028128 0.1329169 -0.034600988 0.19749567 0.1250691
0.17631042 -0.1330174 -0.07007613 0.05334866 0.0060581043 0.011146241 -0.033064675 0.2380662
0.24969457 0.36306632 -0.22486503 0.22735277 0.29728106 0.05561887 0.10619059 0.056112744
0.1437232 -0.12932536 -0.007275225 -0.015981473 0.10798591 -0.1364223 0.11685084 -0.010973175
-0.13694507 -0.04669395 -0.11646554 -0.075988844 -0.154498 0.05119869 -0.15420471 -0.12661637
-0.10899913 -0.16608086 0.22185221 -0.1292799 0.031460218 0.14123511 0.0063014175 -0.027180064
-0.004602229 -0.07519598 0.05667323 0.09735727 0.0419473 0.035495363 0.010434065 0.07849755
-0.0067469007 0.025838079 0.12234205 0.06980105 0.013411247 -0.0018888883 0.015237404 0.074607834
-0.006197486 0.10444129 0.07135705 0.00706541 -0.0068135383 0.044247147 0.029109385 0.028426692
0.04178687 -0.026063828 0.016885351 0.0042066653 -0.07435183 -0.036067944 -0.077113114 -0.06501793
-0.008002867 -0.016467484 -0.02633055 -0.09154741 -0.077288136 -0.0075216983 -0.039019804 -0.021381719
0.007265258 -0.0277047 -0.069566496 -0.09910408 -0.00525577 -0.031878896 0.032012522 0.019176593
0.0052711586 -1.5907952e-05 -0.050907988 0.32121044 -0.047974624 -0.14600106 -0.14195216 0.13167554
0.13758516 -0.06690845 0.026524423 -0.067257784 -0.37254545 -0.15848564 0.12432432 -0.062290005
-0.17279041 -0.040294405 -0.075956844 -0.16041371 0.044044312 0.07689059 0.14125703 0.30440962
0.015963111 0.1666465 -0.26262045 0.025882406 0.058408458 -0.06927184 0.28249162 0.040591836
0.09289663 -0.16997251 -0.11030577 -0.08113863 -0.14465779 0.13753682 -0.10737042 0.10428398
-0.07826546 -0.059942614 -0.014343669 0.0020530995 0.10263059 0.042029206 -0.0022750031 0.048495896
-0.010004825 -0.16466445 -0.0071096537 0.02370051 -0.0016149285 -0.05753161 -0.022104483 -0.060110062
0.14052051 -0.083069876 0.02836227 -0.07114689 -0.15252063 0.12297527 0.1292498 0.15273188
0.15156898 -0.03478472 0.04044652 0.16916707 -0.06797021 0.15658273 0.087804794 0.14672342
0.20979552 0.06276527 0.08139124 -0.085892156 0.010690849 -0.0020507677 0.011496852 0.05986358
0.049013972 0.05052244 0.002524067 0.040878426 -0.11031491 -0.28926724 -0.0015894109 0.06699614
-0.022021282 -0.0025690054 0.0028300432 0.08200483 -0.12669383 -0.044068005 0.07652173 0.08965168
0.02393682 0.046030212 -0.047735825 -0.037688076 -0.056992173 -0.039550174 0.0144676985 -0.049905263
-0.010623862 -0.059382092 0.07655827 0.010130115 0.012057498 0.029092345 0.014851811 0.011885765
00000000: 7c72 833d 68fa 61bd 1cb4 813e 4a33 b93d
00000010: 90cb 28be a09a 063e d034 4f3e 14a6 e4bc
00000020: bf26 4abc b7b3 043e 987a 983d 64cd 13bd
00000030: 46e9 043e 77e6 d83c 47cc 553d c26c 793e
00000040: 38ee 2fbe 63c3 f5bc cfcb afbd 9d85 9dbd
00000050: 174e 89be 28e5 b2bd e6cd 853e baac 4a3c
00000060: 1c45 dd3c 2ef6 283e cfa0 1d3e baf4 b4be
00000070: 694f fcbd 612a 2d3e 8f2c bfbb d06d d3bd
00000080: beaa 543e 610f 0c3e 41f0 a6be bb62 2ebe
00000090: 2a01 5cbb a23a 8cbe 80a0 83be 63f4 94be
000000a0: 184e d63d a3d1 cd3d 3695 f9bc 340d 0bbd
000000b0: 7890 45be 7c16 53be c85c e2bd 84e8 e33d
000000c0: 8508 bc3d 615d 153e b465 18be a2ef 8f3d
000000d0: 5e1b 083e c4b9 0dbd 4e3c 4a3e 1d12 003e
000000e0: b88a 343e b735 08be 1384 8fbd 2084 5a3d
000000f0: 1083 c63b b99e 363c d36e 07bd a0c7 733e
00000100: efaf 7f3e d4e3 b93e 0543 66be 2acf 683e
00000110: 3935 983e 9dd0 633d 747a d93d 7ad6 653d
00000120: 2d2c 133e de6d 04be 0365 eebb 94eb 82bc
00000130: b727 dd3d 4ab2 0bbe 7e4f ef3d d5c8 33bc
00000140: 543b 0cbe 2842 3fbd 7c85 eebd 0aa0 9bbd
00000150: b934 1ebe b8b5 513d d7e7 1dbe b9a7 01be
00000160: f03a dfbd 1a11 2abe 3a2d 633e f361 04be
00000170: 6edc 003d f09f 103e 1f7c ce3b baa8 debc
00000180: 4cce 96bb 5a00 9abd 3022 683d 4063 c73d
00000190: efd0 2b3d 9663 113d a4f3 2a3c 53c3 a03d
000001a0: 1b15 ddbb 61aa d33c 788e fa3d daf3 8e3d
000001b0: d9ba 5b3c 9394 f7ba 4ea6 793c fecb 983d
000001c0: 4814 cbbb 51e5 d53d a523 923d f484 e73b
000001d0: 1a44 dfbb 7f3c 353d ce76 ee3c 18df e83c
000001e0: b628 2b3d cf83 d5bc 2653 8a3c 11d8 893b
000001f0: c645 98bd fbbb 13bd 7bed 9dbd 1f28 85bd
00000200: 751e 03bc d1e6 86bc 2ab3 d7bc 357d bbbd
00000210: 3e49 9ebd 9478 f6bb 3bd3 1fbd b728 afbc
00000220: 6711 ee3b f8f4 e2bc e178 8ebd 14f7 cabd
00000230: 9838 acbb 7293 02bd 901f 033d 3b18 9d3c
00000240: afb9 ac3b 1172 85b7 e584 50bd b275 a43e
00000250: 0a81 44bd 4d81 15be e85b 11be f4d5 063e
00000260: 20e3 0c3e 4c07 89bd bf49 d93c 73be 89bd
00000270: 47be bebe 0f4a 22be c09d fe3d ce23 7fbd
00000280: f8ef 30be bf0b 25bd 438f 9bbd 7e43 24be
00000290: cf67 343d d078 9d3d afa5 103e 94db 9b3e
000002a0: 12c5 823c 61a5 2a3e 3076 86be 5707 d43c
000002b0: b53d 6f3d 65de 8dbd bea2 903e a043 263d
000002c0: 9740 be3d 460d 2ebe fee7 e1bd 032c a6bd
000002d0: 2c21 14be 74d6 0c3e 06e5 dbbd d792 d53d
000002e0: a449 a0bd 6386 75bd b501 6bbc 4b8d 063b
000002f0: fd2f d23d d126 2c3d 3818 15bb a2a3 463d
00000300: 47eb 23bc cc9d 28be 19f8 e8bb 9227 c23c
00000310: 02ac d3ba 44a6 6bbd 7614 b5bc f835 76bd
00000320: 9ce4 0f3e 8a20 aabd fe57 e83c 76b5 91bd
00000330: 5e2e 1cbe 75da fb3d 0f5a 043e bf65 1c3e
00000340: e634 1b3e 6c7a 0ebd 40ab 253d 223a 2d3e
00000350: f733 8bbd 3957 203e 00d3 b33d aa3e 163e
00000360: a3d4 563e 148b 803d 73b0 a63d 3ae8 afbd
00000370: ac28 2f3c 2c66 06bb 4b5d 3c3c 8333 753d
00000380: e0c2 483d 9ef0 4e3d d16a 253b 2370 273d
00000390: c9ec e1bd d61a 94be c853 d0ba 4635 893d
000003a0: fa65 b4bc c25c 28bb 3f78 393b 26f2 a73d
000003b0: 07bc 01be a780 34bd 6db7 9c3d 4d9b b73d
000003c0: 2617 c43c 2d8a 3c3d a486 43bd d05e 1abd
000003d0: a070 69bd 5dff 21bd ed09 6d3c 7669 4cbd
000003e0: b50f 2ebc a33a 73bd 95ca 9c3d c8f8 253c
000003f0: d08c 453c 1253 ee3c 0355 733c 83bc 423c

classifier.1.bias f4 [10]
0.1941592 -0.27536345 0.2834005 0.04962381 -0.4426354 -0.12090236 0.22226815 0.102041334
0.2139735 -0.26339462
00000000: abd1 463e 70fc 8cbe df19 913e 5642 4b3d
00000010: 1ba1 e2be a89b f7bd 439a 633e 0cfb d03d
00000020: df1b 5b3e a9db 86be
