models/03_pt_FashionMnist_fcn_gpu.pth (torch, 33503 bytes, 4 tensors)

layer_stack.1.weight f4 [10, 784]
0.027229548 0.029581485 -0.009189512 0.027542574 -0.010391263 -0.0023889178 -0.04493905 -0.036866333
-0.012978469 -0.020901544 0.2458965 0.31279355 0.0552892 0.10562622 0.16310461 0.028590225
0.2215837 0.28509885 0.003327505 -0.039029922 -0.08156301 -0.058166336 -0.03292642 0.01833103
-0.032947257 -0.019387867 -0.01052175 -0.021535516 0.0033221745 -0.035385467 0.028431568 -0.040032774
0.017097523 -0.024478579 -0.09399904 -0.057807248 0.07917055 0.28308094 0.27657458 0.12354059
0.009097722 0.123385295 0.1943549 0.118523024 0.19317143 0.24584183 0.30471474 0.11021295
-0.023819344 -0.097678035 -0.095311515 -0.033364337 -0.03837004 0.020793803 0.008739331 0.0146709215
0.010936877 -0.0014598827 0.021445813 -0.034085084 -0.01039746 -0.0699798 0.032842025 0.05449675
-0.035347212 -0.029289208 0.041293286 -0.081287585 0.02182715 -0.08511128 -0.0767882 -0.029566208
0.013431574 -0.105120346 -0.064152 -0.1053642 0.016693715 0.00040301465 -0.012099652 -0.008193882
-0.030949382 -0.030503383 0.015211825 -0.014925617 0.021159833 -0.010265798 0.015871616 -0.041009106
-0.03209705 0.021526702 0.09838959 -0.103204876 -0.15592948 0.02275324 0.14989974 0.01890533
-0.018840233 -0.1417501 -0.116780266 -0.13523519 -0.09324354 0.041671325 0.01057279 -0.19749151
-0.115320936 -0.053619787 -0.011537178 -0.0561245 -0.05101078 -0.029597767 0.029934725 0.005463306
0.01043172 -0.035863202 -0.033955626 -0.027920319 -0.004435227 0.054483145 0.05598218 -0.016666677
-0.041456323 0.09351915 0.045051914 -0.08830375 -0.26706666 -0.24483314 -0.22000064 -0.20637834
-0.16036834 -0.026252037 0.102070786 -0.057798866 -0.062452666 0.07009852 -0.03051468 -0.0049847057
-0.06787941 -0.049755104 0.00065359764 -0.010164308 0.012943319 -0.035418086 0.014120868 -0.047451913
-0.0010976326 0.13191493 0.09201988 0.12012714 0.06056945 -0.029048229 -0.04865125 -0.092435345
-0.053350355 -0.18296066 -0.15032214 -0.154158 -0.07430932 0.02945559 0.03475563 -0.018605888
0.05918745 0.07222301 0.057859477 -0.0036022847 -0.032231305 -0.0281795 -0.028611926 0.027861616
0.0060578315 -0.026337111 -0.030454135 -0.026183823 0.056924134 0.14723289 0.10712013 0.15049088
-0.01067215 -0.026815401 -0.040520795 -0.12804309 -0.051073007 -0.058514494 -0.080457106 -0.07264672
-0.064998254 -0.034920983 -0.057854388 -0.027270334 0.07923484 0.01197151 0.11378945 -0.0030164942
-0.030053044 0.0045560496 -0.010370855 -0.009614495 -0.0012818596 -0.0102742715 -0.00228562 -0.008108654
0.014397971 0.07513591 0.18093553 0.18498825 0.065649025 -0.034727886 -0.05856282 -0.094399
-0.0600259 -0.075243294 -0.041469894 -0.034358576 -0.08806638 -0.07689033 -0.06365962 0.013574176
0.09605362 0.04906202 0.087322034 -0.0341959 -0.07856517 -0.010193501 -0.030360997 -0.00939268
-0.03840197 0.013769204 0.0141398925 -0.0042391582 0.015531581 0.0037276747 0.059112336 0.18548618
0.114939936 0.0724474 0.07696501 0.01902971 0.055537242 -0.089581735 -0.07961111 -0.003974478
0.05349978 0.1292565 0.03638586 -0.018417835 0.100722075 0.05544931 -0.034529705 -0.024016812
-0.067263804 -0.029087024 -0.03091431 -0.031682447 -0.009928314 -0.03055414 -0.032429427 -0.053144798
00000000: 8010 df3c df54 f23c 9b8f 16bc f7a0 e13c
00000010: 1e40 2abc 648f 1cbb 0212 38bd 2701 17bd
00000020: a5a3 54bc b739 abbc 4bcc 7b3e 7a26 a03e
00000030: ee76 623d 8f52 d83d e504 273e 0c36 ea3c
00000040: d6e6 623e 7af8 913e 4512 5a3b d7dd 1fbd
00000050: 820a a7bd d33f 6ebd dbdd 06bd f52a 963c
00000060: b4f3 06bd 4ed3 9ebc 6b63 2cbc 406b b0bc
00000070: d7b8 593b 5af0 10bd 52e9 e83c 68f9 23bd
00000080: 1b10 8c3c 4d87 c8bc 9282 c0bd 4bc7 6cbd
00000090: 2b24 a23d fcef 903e 2f9b 8d3e d902 fd3d
000000a0: 9d0e 153c 6eb1 fc3d f904 473e 33bc f23d
000000b0: bbce 453e f6bd 7b3e 9203 9c3e 54b7 e13d
000000c0: c920 c3bc 6c0b c8bd af32 c3bd 0ba9 08bd
000000d0: e729 1dbd c457 aa3c 692f 0f3c 4e5e 703c
000000e0: 9630 333c 8959 bfba 21af af3c cd9c 0bbd
000000f0: 1c5a 2abc 9251 8fbd 5c85 063d fc37 5f3d
00000100: 3dc8 10bd ecef efbc 2623 293d 1b7a a6bd
00000110: dace b23c d34e aebd 2243 9dbd d534 f2bc
00000120: 1b10 5c3c 5649 d7bd 2062 83bd 30c9 d7bd
00000130: 42c1 883c b64b d339 9e3d 46bc a23f 06bc
00000140: 8f89 fdbc 3be2 f9bc 053b 793c 938a 74bc
00000150: 6357 ad3c e131 28bc 3105 823c 2af9 27bd
00000160: 3278 03bd c458 b03c 7b80 c93d 145d d3bd
00000170: faab 1fbe 0165 ba3c 517f 193e 5adf 9a3c
00000180: d556 9abc f026 11be 7e2a efbd 187b 0abe
00000190: 78f6 bebd 8daf 2a3d 7f39 2d3c 373b 4abe
000001a0: 622d ecbd 6ca0 5bbd 6f06 3dbc cee2 65bd
000001b0: aef0 50bd 0477 f2bc ab39 f53c 8805 b33b
000001c0: cee9 2a3c 4be5 12bd 0e15 0bbd 27b9 e4bc
000001d0: 6155 91bb b829 5f3d 924d 653d 8e88 88bc
000001e0: 1bce 29bd f886 bf3d 5b88 383d 99d8 b4bd
000001f0: f6bc 88be 8ab5 7abe d947 61be d854 53be
00000200: 9937 24be 830e d7bc 7d0a d13d 81be 6cbd
00000210: 5ece 7fbd d08f 8f3d ecf9 f9bc be56 a3bb
00000220: 5c04 8bbd 02cc 4bbd 3256 2b3a 3388 26bc
00000230: 3710 543c 8e12 11bd 375b 673c f05c 42bd
00000240: 70de 8fba b514 073e eb74 bc3d 3805 f63d
00000250: ac17 783d 8df6 edbc 8846 47bd be4e bdbd
00000260: e785 5abd 0a5a 3bbe 0cee 19be 98db 1dbe
00000270: 7c2f 98bd d94c f13c eb5b 0e3d 606b 98bc
00000280: 8a6e 723d a8e9 933d 0ffe 6c3d 4f14 6cbb
00000290: f904 04bd b2d8 e6bc 8f63 eabc 0b3e e43c
000002a0: c680 c63b edc0 d7bc f37a f9bc 757f d6bc
000002b0: 4829 693d 38c4 163e cc61 db3d 481a 1a3e
000002c0: 3eda 2ebc f9ab dbbc 22f9 25bd ba1d 03be
000002d0: ee31 51bd e5ac 6fbd b2c6 a4bd cec7 94bd
000002e0: ce1d 85bd 4e09 0fbd b9f8 6cbd 0966 dfbc
000002f0: e045 a23d 2724 443c 710a e93d 60b0 45bb
00000300: cd31 f6bc ea4a 953b 85ea 29bc 1d86 1dbc
00000310: 1204 a8ba 6b55 28bc 57ca 15bb 29da 04bc
00000320: 78e5 6b3c dbe0 993d 2a47 393e 8f6d 3d3e
00000330: ff72 863d d43e 0ebd 91df 6fbd 4354 c1bd
00000340: b8dd 75bd 2819 9abd 56dc 29bd 94bb 0cbd
00000350: 255c b4bd ad78 9dbd fa5f 82bd 3866 5e3c
00000360: c3b7 c43d 42f5 483d e5d5 b23d 0011 0cbd
00000370: c7e6 a0bd a402 27bc a0b7 f8bc c1e3 19bc
00000380: 624b 1dbd 3a98 613c 02ab 673c a3e8 8abb
00000390: 2c78 7e3c 014c 743b c71f 723d 17f0 3d3e
000003a0: a165 eb3d 4d5f 943d d59f 9d3d 32e4 9b3c
000003b0: 057b 633d a176 b7bd 260b a3bd 573c 82bb
000003c0: 9622 5b3d d15b 043e 5709 153d 00e1 96bc
000003d0: 6047 ce3d d11e 633d 056f 0dbd e8be c4bc
000003e0: 9bc1 89bd e947 eebc 0240 fdbc 74c5 01bd
000003f0: 5eaa 22bc ad4c fabc b8d4 04bd 5cae 59bd

layer_stack.1.bias f4 [10]
0.46204975 -0.6131071 1.6574665 0.5964905 0.69310397 0.11804628 0.07782001 0.20447454
0.18843153 0.24344575
00000000: c991 ec3e 96f4 1cbf dd27 d43f 9ab3 183f
00000010: 436f 313f 40c2 f13d 1960 9f3d c661 513e
00000020: 32f4 403e d849 793e

layer_stack.3.weight f4 [10, 10]
0.19931498 -0.12410597 -0.022563867 0.773387 0.54000336 0.06921094 0.16443145 -0.31639132
-1.0548118 0.3133113 -0.2213116 1.0032843 -0.5818269 0.28171462 -0.24722828 -0.22231871
-0.7848608 -0.16225238 -0.7472603 -1.9269763 0.8984934 0.06465437 0.40300098 0.30791253
-0.8831736 0.12414839 0.8174401 -0.18350068 -0.77486444 0.08918258 0.23467436 -0.27490303
0.11569007 -0.06507663 0.037706733 0.13407403 0.03414068 -0.207458 -0.08100463 -0.28464884
0.05516046 0.07847672 -0.4125187 -0.11995107 0.124413736 0.6947865 1.1622227 0.0008801982
-0.47559652 -0.32881406 -0.4466791 -2.0503957 1.4385067 0.41949347 0.3503647 1.3628455
-1.100568 1.0959485 -0.25339374 -1.1247878 0.08445438 -0.28610218 -0.19731058 -0.09581755
0.3647184 -0.67251736 0.8367116 0.75657254 -1.0761625 0.42694998 0.21709767 -0.9222975
0.50970584 0.6735775 -0.75035983 -0.5143288 -1.5985548 -0.07416587 0.99774927 -1.4118192
-0.2426682 -1.4743922 0.44597846 0.6030834 -0.94344336 -0.05435697 0.9560271 -0.76818746
0.40825072 0.38620797 -0.18572438 -0.33648416 0.30533624 0.7736989 -0.72674817 -0.39438117
-1.066907 1.0353142 0.48827374 -0.26519385
00000000: 3a19 4c3e 452b febd dcd7 b8bc b1fc 453f
00000010: a93d 0a3f 77be 8d3d b860 283e 0bfe a1be
00000020: 1304 87bf 576a a03e 829f 62be 9f6b 803f
00000030: 9cf2 14bf e63c 903e 6929 7dbe 84a7 63be
00000040: a3ec 48bf 7d25 26be 734c 3fbf 29a7 f6bf
00000050: aa03 663f 8369 843d 2556 ce3e b6a6 9d3e
00000060: aa17 62bf 8341 fe3d c143 513f 9ae7 3bbe
00000070: 845d 46bf 5ba5 b63d 7a4e 703e 17c0 8cbe
00000080: eaee ec3d e546 85bd 6072 1a3d b44a 093e
00000090: 19d7 0b3d df6f 54be c1e5 a5bd 7ebd 91be
000000a0: efef 613d 67b8 a03d a735 d3be e8a8 f5bd
000000b0: a1cc fe3d 87dd 313f b7c3 943f 1abd 663a
000000c0: 6381 f3be 515a a8be 1fb3 e4be af39 03c0
000000d0: fd20 b83f d9c7 d63e 0163 b33e b971 ae3f
000000e0: 6adf 8cbf 0a48 8c3f d3bc 81be 0cf9 8fbf
000000f0: 6bf6 ac3d fc7b 92be c90b 4abe fe3b c4bd
00000100: 5fbc ba3e 192a 2cbf bb32 563f bdae 413f
00000110: b1bf 89bf 3099 da3e da4e 5e3e b01b 6cbf
00000120: 157c 023f 936f 2c3f 9517 40bf 0dab 03bf
00000130: 729d ccbf 47e4 97bd 7f6c 7f3f 7eb6 b4bf
00000140: 037e 78be e2b8 bcbf 4a57 e43e ac63 1a3f
00000150: 8185 71bf 6aa5 5ebd 31be 743f efa7 44bf
00000160: 3d06 d13e 0dbd c53e 882e 3ebe a747 acbe
00000170: 0855 9c3e 2211 463f 2b0c 3abf 54ec c9be
00000180: 6990 88bf 2d85 843f 04ff f93e 7dc7 87be

layer_stack.3.bias f4 [10]
0.8344861 0.4590705 0.4457018 -0.16074175 -0.3943442 1.3371276 1.2650735 1.064656
-0.70567685 -1.0897802
00000000: e2a0 553f 4a0b eb3e 0733 e43e 7c99 24be
00000010: 7ce7 c9be ff26 ab3f eeed a13f a646 883f
00000020: 3da7 34bf eb7d 8bbf
